…
            "469/469 - 4s - loss: 0.0046 - accuracy: 0.9985 - val_loss: 0.0518 - val_accuracy: 0.9930 - 4s/epoch - 8ms/step\n",
            "Epoch 100/100\n",
            "469/469 - 4s - loss: 0.0045 - accuracy: 0.9987 - val_loss: 0.0512 - val_accuracy: 0.9931 - 4s/epoch - 8ms/step\n",
            "Model: \"sequential_3\"\n",
            "_________________________________________________________________\n",
            " Layer (type)                Output Shape              Param #   \n",
            "=================================================================\n",
            " conv2d_6 (Conv2D)           (None, 26, 26, 32)        320       \n",
            "                                                                 \n",
            " conv2d_7 (Conv2D)           (None, 24, 24, 64)        18496     \n",
            "                                                                 \n",
            " max_pooling2d_3 (MaxPooling  (None, 12, 12, 64)       0         \n",
            " 2D)                                                             \n",
            "                                                                 \n",
            " dropout_6 (Dropout)         (None, 12, 12, 64)        0         \n",
            "                                                                 \n",
            " flatten_3 (Flatten)         (None, 9216)              0         \n",
            "                                                                 \n",
            " dense_6 (Dense)             (None, 128)               1179776   \n",
            "                                                                 \n",
            " dropout_7 (Dropout)         (None, 128)               0         \n",
            "                                                                 \n",
            " dense_7 (Dense)             (None, 10)                1290      \n",
            "                                                                 \n",
            "=================================================================\n",
            "Total params: 1,199,882\n",
            "Trainable params: 1,199,882\n",
            "Non-trainable params: 0\n",
            "_________________________________________________________________\n",
            "정확도 :  99.30999875068665\n"
…
            "469/469 - 5s - loss: 0.0462 - accuracy: 0.9824 - val_loss: 0.4362 - val_accuracy: 0.9347 - 5s/epoch - 10ms/step\n",
            "Epoch 100/100\n",
            "469/469 - 5s - loss: 0.0412 - accuracy: 0.9837 - val_loss: 0.3895 - val_accuracy: 0.9348 - 5s/epoch - 10ms/step\n",
            "Model: \"sequential_4\"\n",
            "_________________________________________________________________\n",
            " Layer (type)                Output Shape              Param #   \n",
            "=================================================================\n",
            " conv2d_8 (Conv2D)           (None, 28, 28, 32)        320       \n",
            "                                                                 \n",
            " conv2d_9 (Conv2D)           (None, 28, 28, 64)        18496     \n",
            "                                                                 \n",
            " max_pooling2d_4 (MaxPooling  (None, 14, 14, 64)       0         \n",
            " 2D)                                                             \n",
            "                                                                 \n",
            " dropout_8 (Dropout)         (None, 14, 14, 64)        0         \n",
            "                                                                 \n",
            " flatten_4 (Flatten)         (None, 12544)             0         \n",
            "                                                                 \n",
            " dense_8 (Dense)             (None, 84)                1053780   \n",
            "                                                                 \n",
            " dropout_9 (Dropout)         (None, 84)                0         \n",
            "                                                                 \n",
            " dense_9 (Dense)             (None, 10)                850       \n",
            "                                                                 \n",
            "=================================================================\n",
            "Total params: 1,073,446\n",
            "Trainable params: 1,073,446\n",
            "Non-trainable params: 0\n",
            "_________________________________________________________________\n",
            "정확도 :  93.48000288009644\n"
…
            "391/391 - 4s - loss: 0.2397 - accuracy: 0.9151 - val_loss: 0.6999 - val_accuracy: 0.8074 - 4s/epoch - 9ms/step\n",
            "Epoch 100/100\n",
            "391/391 - 4s - loss: 0.2353 - accuracy: 0.9175 - val_loss: 0.6999 - val_accuracy: 0.8057 - 4s/epoch - 9ms/step\n",
            "Model: \"sequential\"\n",
            "_________________________________________________________________\n",
            " Layer (type)                Output Shape              Param #   \n",
            "=================================================================\n",
            " conv2d (Conv2D)             (None, 30, 30, 32)        896       \n",
            "                                                                 \n",
            " conv2d_1 (Conv2D)           (None, 28, 28, 32)        9248      \n",
            "                                                                 \n",
            " max_pooling2d (MaxPooling2D  (None, 14, 14, 32)       0         \n",
            " )                                                               \n",
            "                                                                 \n",
            " dropout (Dropout)           (None, 14, 14, 32)        0         \n",
            "                                                                 \n",
            " conv2d_2 (Conv2D)           (None, 12, 12, 64)        18496     \n",
            "                                                                 \n",
            " conv2d_3 (Conv2D)           (None, 10, 10, 64)        36928     \n",
            "                                                                 \n",
            " max_pooling2d_1 (MaxPooling  (None, 5, 5, 64)         0         \n",
            " 2D)                                                             \n",
            "                                                                 \n",
            " dropout_1 (Dropout)         (None, 5, 5, 64)          0         \n",
            "                                                                 \n",
            " flatten (Flatten)           (None, 1600)              0         \n",
            "                                                                 \n",
            " dense (Dense)               (None, 512)               819712    \n",
            "                                                                 \n",
            " dropout_2 (Dropout)         (None, 512)               0         \n",
            "                                                                 \n",
            " dense_1 (Dense)             (None, 10)                5130      \n",
            "                                                                 \n",
            "=================================================================\n",
            "Total params: 890,410\n",
            "Trainable params: 890,410\n",
            "Non-trainable params: 0\n",
            "_________________________________________________________________\n",
            "정확도 :  80.57000041007996\n"
…
